model_keypoints_58pts_iter_50.pt (torch, 204327 bytes, 12 tensors)

conv1.weight f4 [32, 1, 7, 7]
0.106294096 -0.075863175 0.08858832 0.02953468 0.008999183 -0.03906622 -0.10474214 -0.09130444
-0.072298214 0.04184511 -0.056174405 -0.09082324 0.10243212 -0.1366309 -0.13683599 -0.15751594
-0.04824297 -0.04572933 -0.08548712 0.099372074 0.10375191 -0.003591918 0.0868341 0.06717341
-0.0430876 -0.15288664 -0.11655788 -0.035437983 -0.14391991 0.10202078 -0.1327098 0.03345799
0.060992748 0.02954673 -0.063777745 -0.009550431 0.12676896 0.0657641 0.10207991 -0.08983934
0.07979279 -0.05373378 0.075011894 0.12136988 0.059106864 0.074509524 -0.036371574 0.11332113
0.11406449 -0.082206234 0.11960372 -0.14562878 0.1035311 -0.11067754 0.09420557 -0.09922717
0.04250743 0.07794381 -0.021268643 0.039850023 0.008425499 -0.0011420773 -0.028935324 0.0739166
0.043347426 0.09741382 -0.100301914 -0.13843131 -0.02249131 0.03450424 0.0071363603 -0.11624294
-0.07017901 0.086586 -0.14274222 -0.030064244 0.10454199 -0.042245384 -0.058134224 0.09897922
-0.06814846 0.04737388 -0.026909854 -0.017977733 -0.02511919 -0.120555684 0.10224558 -0.14627278
0.013120366 -0.15439606 -0.008891516 -0.01626122 0.0922942 -3.1050804e-05 -0.052305907 -0.09713475
-0.080373496 -0.05871197 -0.07039355 0.042324852 0.010935709 0.13286096 -0.051717486 0.13233685
-0.06910777 -0.001715493 0.14219102 0.10910281 0.036113445 -0.03780141 -0.11246674 -0.01793866
0.12576257 0.109261215 0.11571297 -0.10014691 -0.023296408 0.10372249 0.06777167 -0.13918729
0.034980174 0.05664369 0.0660342 -0.11203251 -0.05267932 0.14934632 -0.061047964 0.059913617
-0.09032613 0.0027689936 -0.10593215 0.105609044 0.044442214 0.095525935 -0.01614116 -0.117451265
-0.05887085 0.052176446 0.022966204 -0.11625698 -0.13022216 0.047764454 0.04694745 -0.05594947
-0.08329906 -0.04677917 0.058222935 -0.013779317 -0.07621574 -0.13576731 0.008471265 -0.09279373
-0.115644015 -0.06983691 -0.014232075 -0.015199779 0.11608304 0.07657281 0.07392458 -0.046857677
0.02891147 -0.0066649 0.0718616 -0.07931902 -0.03366254 -0.07832981 -0.1447471 -0.02509335
-0.08432467 0.08092729 0.10488686 -0.05405321 -0.06666393 0.08703746 0.115803 -0.038069643
-0.029366404 -0.09959841 0.011616176 -0.14994265 0.030716946 0.032300863 0.023835147 -0.15178014
0.07253995 0.055293594 0.09844645 -0.06857532 -0.0036808779 -0.029236393 -0.14743282 -0.14130224
-0.092178665 -0.16003257 0.05586448 0.09738386 0.045932084 -0.026933707 0.081840634 -0.022555418
0.06251712 0.06257327 -0.08044249 -0.120090626 0.070117354 0.1323997 0.026407361 0.019962892
-0.109610185 0.13166426 0.005202368 -0.122470245 -0.13277991 0.08658764 0.02012308 -0.11205616
0.13056292 -0.053653143 0.08179827 0.10098955 0.104137525 0.11447479 -0.05379474 0.0099417865
0.10849659 0.05392763 -0.09188053 0.09774567 -0.076474994 -0.069275334 0.06973834 0.10475533
0.082474396 0.08862811 0.009130567 0.019250289 0.1007099 -0.03092517 -0.102541484 0.09472914
-0.088811606 0.10168612 0.08386229 0.03588988 0.10997434 0.044463262 0.036382943 0.037806273
0.05296418 0.07979955 -0.027416125 -0.068197764 -0.035607353 0.13195483 0.13715197 -0.10217895
00000000: b8b0 d93d 275e 9bbd cb6d b53d b7f2 f13c
00000010: 4f71 133c e703 20bd 0c83 d6bd d2fd babd
00000020: 1611 94bd c765 2b3d 2217 66bd 8901 babd
00000030: eec7 d13d f8e8 0bbe bc1e 0cbe dc4b 21be
00000040: 6c9a 45bd ae4e 3bbd df13 afbd 9683 cb3d
00000050: e27b d43d 6266 6bbb 14d6 b13d 3692 893d
00000060: a07c 30bd 518e 1cbe e6b5 eebd 6b27 11bd
00000070: be5f 13be 45f0 d03d 14e5 07be 3f0b 093d
00000080: 88d3 793d fc0b f23c e89d 82bd 6979 1cbc
00000090: b9cf 013e 54af 863d 460f d13d b0fd b7bd
000000a0: 676a a33d f417 5cbd d69f 993d c690 f83d
000000b0: 0a1a 723d 7398 983d 5cfa 14bd e914 e83d
000000c0: a59a e93d be5b a8bd ccf2 f43d b61f 15be
000000d0: 1d08 d43d e8aa e2bd daee c03d 9d37 cbbd
000000e0: 451c 2e3d 01a1 9f3d 943b aebc c739 233d
000000f0: 1b0b 0a3c c1b1 95ba c609 edbc 9661 973d
00000100: 128d 313d e680 c73d 176b cdbd f0c0 0dbe
00000110: b23f b8bc 5154 0d3d 21d8 e93b c710 eebd
00000120: 03ba 8fbd 0054 b13d 042b 12be 4a49 f6bc
00000130: 1c1a d63d 7f09 2dbd 271e 6ebd 9eb5 ca3d
00000140: 6b91 8bbd 1d0b 423d 0e72 dcbc 0a46 93bc
00000150: c2c6 cdbc e6e5 f6bd 2166 d13d 88c8 15be
00000160: cef6 563c 001a 1ebe b9ad 11bc 4036 85bc
00000170: be04 bd3d 8c3c 02b8 b83e 56bd 95ee c6bd
00000180: dc9a a4bd f67b 70bd 7e2a 90bd d35c 2d3d
00000190: b02b 333c b40c 083e b7d5 53bd 5083 073e
000001a0: 6088 8dbd 65da e0ba 869a 113e 4b71 df3d
000001b0: b1eb 133d a7d5 1abd f654 e6bd 19f4 92bc
000001c0: e7c7 003e 58c4 df3d ecfa ec3d d319 cdbd
000001d0: 1cd8 bebc 756c d43d e0cb 8a3d 1d87 0ebe
000001e0: 5f47 0f3d 3703 683d f03c 873d 4d71 e5bd
000001f0: 45c6 57bd 3eee 183e 6e0d 7abd fb67 753d
00000200: e8fc b8bd 0178 353b f4f2 d8bd 8e49 d83d
00000210: 0a09 363d 1aa3 c33d 773a 84bc 4a8a f0bd
00000220: 8f22 71bd f8b6 553d 9f23 bc3c 2418 eebd
00000230: f558 05be a9a4 433d f84b 403d 452b 65bd
00000240: b398 aabd 849b 3fbd 2c7b 6e3d a5c2 61bc
00000250: ff16 9cbd 9606 0bbe 10cb 0a3c a40a bebd
00000260: c5d6 ecbd a706 8fbd a62d 69bc 7e08 79bc
00000270: f2bc ed3d 35d2 9c3d c565 973d d6ed 3fbd
00000280: bfd7 ec3c 3c65 dabb 2d2c 933d 0372 a2bd
00000290: bbe1 09bd 616b a0bd 9538 14be 9290 cdbc
000002a0: 6ab2 acbd 35bd a53d ecce d63d e666 5dbd
000002b0: 1987 88bd b240 b23d 202a ed3d eaee 1bbd
000002c0: d091 f0bc 40fa cbbd c651 3e3c 918a 19be
000002d0: 1ba2 fb3c e94d 043d ed41 c33c 416c 1bbe
000002e0: d38f 943d 897b 623d 4b9e c93d 3871 8cbd
000002f0: e23a 71bb 2981 efbc a1f8 16be 89b1 10be
00000300: 2bc8 bcbd 94df 23be 27d2 643d 3071 c73d
00000310: 4823 3c3d 14a4 dcbc 109c a73d 24c6 b8bc
00000320: fa08 803d 6a26 803d 08bf a4bd 13f2 f5bd
00000330: b099 8f3d c993 073e 4054 d83c 3889 a33c
00000340: 4e7b e0bd ffd2 063e a078 aa3b aed1 fabd
00000350: 75f7 07be dc54 b13d 28d9 a43c b37d e5bd
00000360: 49b2 053e 66c3 5bbd da85 a73d 9cd3 ce3d
00000370: 0e46 d53d c271 ea3d e057 5cbd e0e2 223c
00000380: 7633 de3d 38e3 5c3d dc2b bcbd e22e c83d
00000390: ec9e 9cbd 3ae0 8dbd fad2 8e3d f689 d63d
000003a0: 56e8 a83d a882 b53d 6098 153c c8b2 9d3c
000003b0: fe40 ce3d c856 fdbc 4501 d2bd 5a01 c23d
000003c0: dce2 b5bd d040 d03d febf ab3d 4401 133d
000003d0: 3a3a e13d 1c1f 363d 4806 153d c0da 1a3d
000003e0: f8f0 583d f26d a33d c897 e0bc 45ab 8bbd
000003f0: 04d9 11bd 2b1f 073e 9171 0c3e 3343 d1bd

conv1.bias f4 [32]
0.13229126 0.113664694 0.040213782 0.035701867 -0.011145517 0.11962737 0.126634 -0.02168584
-0.13841912 0.035268307 0.13331866 0.097726986 0.0043818406 0.037403688 -0.007991254 0.019231519
-0.07675095 0.027530808 0.005390119 -0.11470336 0.059966117 0.15081419 -0.062452704 -0.13173938
0.11789601 -0.07966709 -0.0093128495 -0.01853723 -0.05228208 -0.09778246 0.11362289 -0.024051428
00000000: 5c77 073e 09c9 e83d 35b7 243d 1f3c 123d
00000010: b09b 36bc 32ff f43d 58ac 013e 81a6 b1bc
00000020: bebd 0dbe 8075 103d b084 083e 1625 c83d
00000030: 8b95 8f3b 9c34 193d c0ed 02bc 6b8b 9d3c
00000040: 9a2f 9dbd 4a88 e13c 989f b03b 98e9 eabd
00000050: 089f 753d 096f 1a3e 68ce 7fbd b0e6 06be
00000060: 7773 f13d 8028 a3bd ec94 18bc 64db 97bc
00000070: bc25 56bd 2c42 c8bd 1eb3 e83d 8007 c5bc

conv2.weight f4 [32, 32, 5, 5]
-5.898009e-05 -0.0017375197 0.0077556027 -0.005682631 0.021611374 0.007923303 0.039489496 0.0014859323
0.033094343 0.038289133 0.012579156 -0.020926362 0.023117822 -0.007297224 0.002696049 0.047443505
0.030894084 0.02783167 0.023822162 -0.012160738 0.031271383 -0.0011337333 -0.0048706215 -0.013895605
0.015091444 0.023510415 0.016766723 0.04026831 -0.019436093 -0.00037923025 0.02598208 0.023778468
0.014904577 0.010747487 0.019232994 0.028336223 0.04631729 0.03994143 0.027474022 -0.006767398
0.0032456757 0.016031155 0.029282847 0.017391058 0.0039042132 0.0055686254 0.028248081 0.041721933
0.026859233 -0.019947883 -0.01359162 0.021053566 -0.010605434 0.01661733 0.0007976514 -0.0076447646
0.03297285 0.010228286 0.0333766 0.015638124 -0.023566477 -0.010970714 0.0035129352 -0.0112193385
-0.012564931 0.0042744577 0.033116087 0.012831143 0.035329975 -0.029910274 0.02101794 -0.022258367
-0.02153122 0.008913856 -0.028030377 0.00355803 0.0059020016 -0.007712907 0.018746462 0.018350577
0.046306696 0.04683038 0.012941418 0.008538782 0.026987761 0.008735101 0.028218921 -0.0017873975
0.029297093 -0.010759747 0.007231932 -0.011978274 0.021417838 -0.012595822 0.0039073774 -0.007781728
0.008459173 0.043317355 0.036247957 0.014617701 0.051242672 0.026165677 0.012226632 0.007939242
0.0023294464 0.032149874 -0.0057867393 0.021026293 0.031957783 -0.01020673 0.045489233 0.044147104
-0.021056628 0.00971105 0.039932955 0.013248663 0.046776608 0.030440897 0.009300217 -0.008485934
0.00063467404 0.034948457 -0.00013378811 0.04005892 0.014572827 0.028352102 0.023839539 0.03464344
0.019164717 -0.019090492 -0.03897334 0.00789146 -0.011958208 -0.014917567 0.026017485 0.005115981
0.015050525 -0.027822547 -0.026757305 0.026130289 -0.007822849 -0.027323857 0.03760424 -0.026607962
-0.0046143536 -0.028028207 0.037399337 0.017588895 0.026824938 -0.011279502 -0.014073584 -0.008178285
0.026148519 0.034738757 0.006406528 0.03680251 0.011475017 -0.009574483 0.03927691 0.024525188
0.0016555134 0.02161095 0.0015599538 0.018051047 -0.01742096 -0.013584387 0.014337811 0.014574439
0.030451931 0.035989154 -0.013888546 0.015087895 -0.019010512 -0.0029373195 0.03587894 0.0134651465
0.03391397 -0.0074927853 -0.02052036 0.009745062 0.0049431254 0.029410634 0.019156467 -0.021006992
0.042901687 -0.0035539086 -0.0058026114 0.029915044 0.048806965 0.022395799 0.006901461 0.03828519
0.014162236 0.009650213 0.042283505 0.015459857 0.04179834 0.015933953 0.036307454 0.008503241
0.010710173 0.019343644 -0.0017008672 -0.015891451 -0.03313895 -0.03392512 0.023197317 0.0001633668
0.0043931934 -0.033339966 0.032406744 0.011900785 -0.012599701 0.010862888 -0.031293213 0.015279162
-0.023519488 0.027212046 -0.022352466 0.018171316 0.021571089 -0.02361523 0.03278098 -0.0027389498
-0.009811212 0.012584652 -0.013065603 0.022166302 -0.003196992 -0.020259036 -0.023726907 -0.0029303995
-0.03072074 0.006403833 -0.0018770352 -0.03260343 0.029731452 0.03337396 -0.000670473 -0.013359717
0.004131904 0.020652294 0.023814812 -0.011297099 -0.007695574 0.020422095 -0.005819701 0.015894111
-0.023951929 -0.014824979 0.03692809 0.027975647 0.010780827 0.026709937 0.016729856 0.01762423
00000000: 6461 77b8 7dbd e3ba b622 fe3b 5d35 babb
00000010: 560a b13c bed0 013c bdbf 213d 9dc3 c23a
00000020: ef8d 073d 11d5 1c3d ce18 4e3c c36d abbc
00000030: 9661 bd3c 8d1d efbb 32b0 303b 1f54 423d
00000040: 9715 fd3c 3eff e33c b226 c33c d53d 47bc
00000050: 6c16 003d c799 94ba bc99 9fbb 64aa 63bc
00000060: 1b42 773c ea98 c03c 5e5a 893c 62f0 243d
00000070: 7138 9fbc 6cd3 c6b9 5fd8 d43c 10cb c23c
00000080: 5432 743c 3a16 303c 838e 9d3c 5e21 e83c
00000090: 33b7 3d3d a099 233d 3311 e13c 0dc1 ddbb
000000a0: 67b5 543b c553 833c 95e2 ef3c b177 8e3c
000000b0: d4dd 7f3b 0479 b63b 8568 e73c 9ee4 2a3d
000000c0: e507 dc3c be69 a3bc 63af 5ebc 8778 ac3c
000000d0: 6ac2 2dbc 1121 883c 7b19 513a ef80 fabb
000000e0: 8a0e 073d 8a94 273c e7b5 083d 861b 803c
000000f0: 7c0e c1bc 82be 33bc 4639 663b 51d1 37bc
00000100: 24dd 4dbc c010 8c3b bca4 073d b739 523c
00000110: 2ab6 103d 6406 f5bc d12d ac3c 2e57 b6bc
00000120: 3e62 b0bc 6c0b 123c f69f e5bc d62d 693b
00000130: 9465 c13b 8ebc fcbb 2e92 993c f353 963c
00000140: 17ac 3d3d 36d1 3f3d 3e08 543c 3fe6 0b3c
00000150: 7015 dd3c ab1d 0f3c 5e2b e73c 1c47 eaba
00000160: 7500 f03c a649 30bc d8f9 ec3b 8640 44bc
00000170: 7674 af3c b55e 4ebc 7509 803b defd febb
00000180: 5898 0a3c 8a6d 313d bd78 143d 157f 6f3c
00000190: d6e3 513d 6759 d63c 3652 483c 9813 023c
000001a0: a0a9 183b 96af 033d b09e bdbb 553f ac3c
000001b0: 2ae6 023d 213a 27bc eb52 3a3d 98d3 343d
000001c0: f37e acbc 191b 1f3c bd90 233d ec10 593c
000001d0: d498 3f3d 305f f93c f05f 183c 9608 0bbc
000001e0: 4160 263a 1d26 0f3d 7949 0cb9 d214 243d
000001f0: dec2 6e3c ab42 e83c 234b c33c 48e6 0d3d
00000200: 53ff 9c3c aa63 9cbc 82a2 1fbd 2f4b 013c
00000210: 5cec 43bc d068 74bc 9f22 d53c f6a3 a73b
00000220: 7a96 763c 1cec e3bc 2332 dbbc 300f d63c
00000230: 682b 00bc 48d6 dfbc e706 1a3d f1f8 d9bc
00000240: 0134 97bb 699b e5bc 0c30 193d 9616 903c
00000250: f9bf db3c a9cd 38bc e494 66bc 37fe 05bc
00000260: 6b35 d63c 3a4a 0e3d daed d13b 3bbe 163d
00000270: b601 3c3c 4bde 1cbc d3e0 203d 0ce9 c83c
00000280: d0fd d83a 7209 b13c 5d77 cc3a cadf 933c
00000290: 67b6 8ebc 0c91 5ebc 23e9 6a3c a1c9 6e3c
000002a0: 5476 f93c 5d69 133d c98c 63bc 3833 773c
000002b0: efbb 9bbc 0b80 40bb ccf5 123d eb9c 5c3c
000002c0: 60e9 0a3d 0a86 f5bb 501a a8bc c1a9 1f3c
000002d0: f1f9 a13b 92ee f03c 06ee 9c3c db16 acbc
000002e0: aeb9 2f3d b1e8 68bb d523 bebb 6510 f53c
000002f0: d0e9 473d 6577 b73c a725 e23b eed0 1c3d
00000300: b908 683c ed1b 1e3c 7831 2d3d 574b 7d3c
00000310: bc34 2b3d ec87 823c 20b7 143d 2e51 0b3c
00000320: b979 2f3c 9076 9e3c a2ef deba ca2e 82bc
00000330: b5bc 07bd 11f5 0abd 4d08 be3c 714d 2b39
00000340: c7f4 8f3b 7d8f 08bd efbc 043d 83fb 423c
00000350: fa6e 4ebc 41fa 313c 502d 00bd 7355 7a3c
00000360: f1ab c0bc cceb de3c 851c b7bc 03dc 943c
00000370: dab5 b03c ba74 c1bc 5945 063d f47f 33bb
00000380: 35bf 20bc db2f 4e3c 1c11 56bc 1b96 b53c
00000390: a084 51bb 47f6 a5bc ee5e c2bc f20b 40bb
000003a0: 10aa fbbc 3fd7 d13b da06 f6ba 2d8b 05bd
000003b0: 608f f33c 22b3 083d aec2 2fba b7e2 5abc
000003c0: ec64 873b 002f a93c 4817 c33c 7817 39bc
000003d0: 272b fcbb 3d4c a73c 31b3 bebb 5e34 823c
000003e0: d636 c4bc 78e4 72bc e941 173d 2f2d e53c
000003f0: 11a2 303c ccce da3c 0d0d 893c b060 903c

conv2.bias f4 [32]
-0.0015272591 0.009503454 -0.0027888936 0.03290906 0.025510967 0.016449638 0.0477312 0.026499646
-0.024959084 -0.018056847 0.006138431 0.041257035 -0.038686432 0.020117 0.0056231995 -0.018262094
0.044785988 0.037861023 0.036055285 0.042999584 -0.006465685 0.020238899 -0.016122438 0.0007664331
-0.01960187 0.051025525 -0.033872385 -0.021647949 0.009305685 0.038760956 -0.034298494 0.044058125
00000000: 502e c8ba 60b4 1b3c dfc5 36bb a7cb 063d
00000010: 60fc d03c 64c1 863c ca81 433d c915 d93c
00000020: fe76 ccbc f4eb 93bc e424 c93b 23fd 283d
00000030: aa75 1ebd 68cc a43c d142 b83b 639a 95bc
00000040: 8371 373d 2914 1b3d b5ae 133d 5520 303d
00000050: 19de d3bb 0ccc a53c 3413 84bc 74ea 483a
00000060: 1a94 a0bc 2400 513d c5bd 0abd 0a57 b1bc
00000070: df76 183c cfc3 1e3d 947c 0cbd 4b76 343d

conv3.weight f4 [32, 32, 3, 3]
-0.024764061 0.0038580187 -0.0328013 -0.015347742 0.022491599 0.047878888 -0.002836734 -0.03876043
-0.052040096 0.022562291 0.010828454 0.03275541 -0.043878198 -0.036420144 0.026655491 -0.032955464
-0.036277924 -0.052330624 -0.018299945 0.056099776 0.0020014644 -0.0136476755 -0.00032944605 -0.030679625
-0.01768247 -0.02842654 -0.033615097 -0.014430303 -0.022878334 -0.028886965 -0.0455489 -0.012809994
-0.019070996 0.023072947 0.014550802 -0.022096826 -0.02940745 0.049826045 0.021398786 0.041401755
-0.029555978 0.03645011 -0.058637492 -0.025996318 -0.018355208 0.02721287 0.050532337 -0.022631321
-0.0036710612 0.0017752796 0.044277128 -0.0335573 -0.01070296 -0.05643211 0.021377068 -0.045493394
0.04000656 -0.02223377 0.024495179 -0.012039776 -0.04673959 0.034665063 -0.05931985 -0.045296792
0.043110814 0.0035855584 -0.04745377 0.048320487 -0.014769841 0.053101774 0.0007466811 0.041009653
0.050077964 -0.033308268 -0.05868721 -0.00014749914 0.059628114 -0.024617273 -0.044078708 -0.022198
0.010794682 0.009300042 -0.035545353 -0.010349538 -0.043689348 -0.024794739 -0.011833612 0.009583157
0.0025975592 0.04146516 0.0044412278 -0.032665126 0.049574163 -0.052248675 -0.023060407 -0.029706469
0.039094325 0.043245107 -0.020928241 0.009913404 -0.020711131 0.05099879 0.03870703 0.027784804
-0.019399041 -0.04929673 -0.02287971 0.027329545 -0.025005303 0.022821095 -0.040620282 0.024653126
0.054630686 0.0557415 -0.040264584 0.05345129 0.009247672 0.005017262 0.044799615 -0.022920989
-0.04993119 -0.020267826 -0.035865836 -0.0391606 0.03478246 0.03624181 -0.0089555085 -0.044746388
0.0046517663 -0.040860012 -0.029962728 0.051165555 0.023039807 -0.03611296 -0.022089142 -0.054719858
0.0077134036 -0.013028428 -0.03731841 -0.040919445 -0.025863722 -0.02715908 0.057116356 -0.04204543
-0.046246726 -0.029205862 0.012803789 -0.007661797 0.021223046 0.036134053 0.011047337 -0.034125064
-0.03502323 0.020090263 -0.03964688 0.019020226 -0.028674047 -0.019318728 0.050666384 0.040663186
0.019748487 -0.016936908 -0.029253587 -0.008116014 -0.050394356 -0.041754074 -0.052865203 -0.009270585
-0.055403247 -0.033674967 0.048584256 -0.045686763 -0.047293738 -0.036613695 -0.055285126 -0.031236023
-0.060822804 -0.006268643 -0.06350928 0.0014945854 -0.038587615 -0.007363882 -0.056485936 0.033371303
0.057056278 -0.017477248 -0.036218233 -0.048806913 0.06041871 0.049020547 0.021613669 0.037854586
0.0546788 -0.058445055 -0.061794717 -0.01958701 0.034152217 0.03964318 0.019959096 -0.02746543
0.05681118 -0.016904715 0.03828011 -0.0024738722 0.0032760054 -0.026664086 0.011633541 0.02398653
0.039069336 0.031466242 -0.049315028 -0.010200836 -0.025367675 0.02748463 -0.055068042 -0.025014928
0.046783898 -0.022393815 -0.011206839 -0.039070163 -0.01247167 -0.005185394 -0.033002682 0.05940496
0.022298556 0.049982194 0.0128788315 -0.006935306 0.016467173 -0.03487599 0.018306833 0.03459118
-0.05700988 -0.03244108 -0.037744526 0.00651497 -0.00092452765 -0.04185045 -0.033543073 -0.021634482
-0.011894781 -0.04830529 -0.0005104691 -0.052785773 0.03532685 0.056301814 0.009503078 -0.02325045
-0.054735158 -0.015262779 0.04635716 0.013112742 -0.015375059 0.011699032 0.009966847 -0.018495835
00000000: 00de cabc d0d6 7c3b a85a 06bd 1875 7bbc
00000010: 4d40 b83c a71c 443d 80e8 39bb 42c3 1ebd
00000020: ff27 55bd 8ed4 b83c d469 313c 892a 063d
00000030: a0b9 33bd 4a2d 15bd 9e5c da3c 4ffc 06bd
00000040: 2998 14bd a358 56bd c4e9 95bc e1c8 653d
00000050: 002b 033b 809a 5fbc 80b9 acb9 d653 fbbc
00000060: d4da 90bc c6de e8bc fcaf 09bd 146d 6cbc
00000070: 586b bbbc 5ba4 ecbc 7c91 3abd 02e1 51bc
00000080: c73a 9cbc 7a03 bd3c 7d66 6e3c 6704 b5bc
00000090: e5e7 f0bc 6516 4c3d 824c af3c e394 293d
000000a0: 611f f2bc b64c 153d de2d 70bd 3bf6 d4bc
000000b0: a95d 96bc 86ed de3c fffa 4e3d 5265 b9bc
000000c0: 3096 70bb 80b0 e83a ef5b 353d 6173 09bd
000000d0: 785b 2fbc 5b25 67bd f61e af3c 4857 3abd
000000e0: ebdd 233d 9823 b6bc 1daa c83c 7b42 45bc
000000f0: 0372 3fbd f4fc 0d3d 5ff9 72bd 2189 39bd
00000100: f794 303d b0fb 6a3b e25e 42bd b4eb 453d
00000110: 34fd 71bc 3f81 593d ecbc 433a bdf9 273d
00000120: 8d1e 4d3d 406e 08bd 0062 70bd 00aa 1ab9
00000130: 9c3c 743d 2aaa c9bc e08b 34bd 95d8 b5bc
00000140: 2edc 303c 345f 183c 0198 11bd 1c91 29bc
00000150: 9af3 32bd 561e cbbc c4e1 41bc ac02 1d3c
00000160: d03b 2a3b 5fd7 293d b887 913b decb 05bd
00000170: 470e 4b3d b502 56bd 2ee9 bcbc fb5a f3bc
00000180: 5f21 203d c821 313d b471 abbc d46b 223c
00000190: 64aa a9bc 1be4 503d 438b 1e3d f59c e33c
000001a0: bdea 9ebc 5eeb 49bd 3b6e bbbc 36e2 df3c
000001b0: ecd7 ccbc 4ef3 ba3c 7461 26bd 5af5 c93c
000001c0: 6dc4 5f3d 3351 643d 7aec 24bd bdef 5a3d
000001d0: 8c83 173c d867 a43b cd7f 373d ccc4 bbbc
000001e0: a684 4cbd b608 a6bc 0ee8 12bd de66 20bd
000001f0: 0e78 0e3d 4b72 143d 20ba 12bc fd47 37bd
00000200: d86d 983b d45c 27bd 6574 f5bc f992 513d
00000210: fabd bc3c 2feb 13bd 4af4 b4bc ee21 60bd
00000220: b8c0 fc3b 3075 55bc 30db 18bd 269b 27bd
00000230: 28e0 d3bc b87c debc d7f2 693d d437 2cbd
00000240: 356d 3dbd 2241 efbc fcc6 513c d00f fbbb
00000250: f4db ad3c 4d01 143d e4ff 343c b9c6 0bbd
00000260: 8574 0fbd 5694 a43c c464 22bd 4ed0 9b3c
00000270: d6e5 eabc 4f42 9ebc 8e87 4f3d 718e 263d
00000280: 94c7 a13c 45bf 8abc 38a5 efbc 08f9 04bc
00000290: 506a 4ebd 5206 2bbd 2f89 58bd a7e3 17bc
000002a0: 84ee 62bd c3ee 09bd 4900 473d 0b22 3bbd
000002b0: 14b7 41bd 3ef8 15bd a872 62bd b0e2 ffbc
000002c0: 5521 79bd 3069 cdbb 2711 82bd f7e5 c33a
000002d0: 0c0e 1ebd b84c f1bb cc5d 67bd 59b0 083d
000002e0: d8b3 693d 722c 8fbc 9259 14bd c2e9 47bd
000002f0: 9c79 773d c5c9 483d 260f b13c 690d 1b3d
00000300: e1f6 5f3d 1564 6fbd 751c 7dbd f074 a0bc
00000310: 32e3 0b3d e360 223d 4281 a33c 2eff e0bc
00000320: d7b2 683d c27b 8abc 9bcb 1c3d b020 22bb
00000330: 40b2 563b a46e dabc 9c9a 3e3c 667f c43c
00000340: 2b07 203d bfe2 003d 8efe 49bd 6821 27bc
00000350: dfcf cfbc 7227 e13c 078f 61bd 1bec ccbc
00000360: 79a0 3f3d 3c73 b7bc e49c 37bc 0908 20bd
00000370: fa55 4cbc 3dea a9bb d22d 07bd 9e52 733d
00000380: 76ab b63c 21ba 4c3d bc01 533c 9041 e3bb
00000390: 2ae6 863c 20da 0ebd 36f8 953c 7baf 0d3d
000003a0: 3183 69bd f0e0 04bd 019a 1abd 887b d53b
000003b0: 005c 72ba 616b 2bbd 7664 09bd cc3a b1bc
000003c0: 54e2 42bc c5db 45bd 00d1 05ba e535 58bd
000003d0: e3b2 103d bb9c 663d ccb2 1b3c ba77 bebc
000003e0: f931 60bd bc10 7abc 01e1 3d3d d4d6 563c
000003f0: ace7 7bbc 4cad 3f3c fc4b 233c 9484 97bc

conv3.bias f4 [32]
0.052691575 -0.0115124155 0.019233601 0.05258349 -0.03715517 0.004957795 0.042016305 0.008352386
0.042160995 -0.039565355 0.07317186 0.03017254 0.054117646 -0.043104384 -0.016496599 -0.021501362
-0.027143631 0.022586305 -0.031705584 0.012236944 0.08238317 -0.009486002 -0.038701747 0.003416618
-0.0044005425 -0.06779852 0.018839236 0.011261752 -0.041587077 0.016288862 -0.0035361524 -0.019463303
00000000: 1fd3 573d 929e 3cbc c98f 9d3c c961 573d
00000010: 0530 18bd 0075 a23b 4a19 2c3d 72d8 083c
00000020: 02b1 2c3d 480f 22bd 21db 953d 672c f73c
00000030: 77aa 5d3d 398e 30bd e023 87bc a023 b0bc
00000040: 525c debc ea06 b93c b7dd 01bd 777d 483c
00000050: 82b8 a83d 2d6b 1bbc b985 1ebd 57e9 5f3b
00000060: 6d32 90bb f3d9 8abd be54 9a3c 3683 383c
00000070: 3657 2abd 3870 853c cbbe 67bb 8171 9fbc

fcl1.weight f4 [210, 32]
-0.12985274 0.009660868 0.09404961 -0.11760273 0.0016834405 0.09294458 -0.18232955 -0.027108438
0.12982358 -0.16320477 0.049772553 -0.055320922 -0.15154023 0.104815975 -0.15537447 -0.16840428
-0.09967707 -0.06819534 -0.15225866 -0.027594265 -0.048094343 -0.14694244 -0.15646565 0.081570275
-0.16363822 -0.061943777 0.15427773 -0.13725881 0.07125534 0.043409456 -0.071088634 0.111515075
0.13620007 -0.10168892 -0.010195077 -0.12368857 0.0062096063 -0.13996328 -0.005284023 -0.09606304
-0.03768234 0.14880626 0.027807511 0.14271209 0.07384527 0.15052976 -0.100715555 -0.17250231
0.01992773 0.04528771 0.0885164 -0.01991155 0.1052122 -0.0442245 -0.036621828 0.16901772
-0.077252895 -0.04495277 0.16659571 -0.135938 0.072879955 0.12217277 -0.001010451 0.1436639
-0.033707723 0.07043934 0.028259814 -0.15871687 0.09145357 0.106374696 -0.05145386 -0.054825358
-0.11192207 -0.0515054 -0.122792274 0.17671536 0.1245525 -0.13623549 -0.15209585 0.026641443
-0.13382739 -0.106389664 -0.15060768 -0.15345423 -0.17141195 -0.15030394 -0.15356198 -0.08455857
0.083594695 -0.07531366 -0.06649428 0.16475 -0.13327847 -0.07398995 -0.0928603 0.08212845
0.12396987 -0.092142664 -0.009759128 -0.1376906 0.14316826 -0.0041567534 -0.004391432 0.013016358
-0.17668124 -0.028323814 0.13606708 -0.12901951 0.13714866 -0.121791534 0.022023723 0.046826616
-0.025075555 0.10582282 -0.04422228 -0.050856426 0.12527667 0.14174373 -0.0046955645 -0.07606446
-0.14428174 0.12267406 0.17150076 -0.17120814 -0.079080276 0.08280255 0.03983985 -0.16562432
-0.09507302 -0.01261711 -0.11864686 -0.027865563 -0.03284702 0.023780374 -0.02225663 -0.036255114
-0.14202136 0.009636417 0.12674946 -0.13289495 0.15833959 -0.17132951 0.05639971 -0.05946718
0.19053757 -0.076972336 0.037668258 -0.11833104 -0.023293247 -0.084407344 -0.012115502 -0.09258835
-0.054199763 -0.11962947 -0.17626636 0.10889385 -0.035659537 0.10916058 0.025567282 0.14790043
0.002341989 0.1524687 0.02551028 0.140286 0.018274864 0.16687623 0.05411903 -0.084122375
0.19282344 -0.103014775 -0.037647102 0.12775227 -0.12408636 -0.03577032 -0.09757236 -0.054344
-0.08120739 0.07958993 0.1157462 0.109868325 0.17828584 0.023175439 -0.10345655 -0.14987041
-0.13884576 0.16023925 0.15740584 -0.017699298 0.089864805 0.0747472 0.026759183 -0.10191564
-0.050971508 -0.073521554 -0.016386613 -0.08493136 -0.08908531 -0.051610187 0.07834782 -0.14630751
-0.17043462 -0.15265894 0.14274032 -0.052570835 0.11904998 -0.012664959 -0.001372233 -0.067774534
-0.028086916 -0.13344525 0.03371054 0.07735227 0.114662156 0.12397243 0.07000591 -0.023873106
0.05549328 -0.13008201 -0.0037086457 -0.113568686 0.1256498 -0.12776808 0.054065928 0.10673989
-0.08045867 0.13072436 0.12531091 -0.0257352 0.08675386 0.10616584 -0.0019450486 -0.106352724
-0.16433907 -0.03805104 0.07940163 0.07854329 0.034522235 0.02319783 -0.123689264 -0.080389805
-0.055851214 0.14751406 0.01553978 0.017547354 -0.055656195 0.11010559 0.0011282265 0.09903456
-0.1765034 -0.035350814 -0.087222375 -0.07602587 0.053619057 -0.082282595 -0.0042505115 -0.081828736
00000000: 1ef8 04be 9e48 1e3c 159d c03d b3d9 f0bd
00000010: e4a6 dc3a ba59 be3d 99b4 3abe 8412 debc
00000020: 79f0 043e 271f 27be 4ede 4b3d 3198 62bd
00000030: 5d2d 1bbe c2a9 d63d 7c1a 1fbe 2c72 2cbe
00000040: 7e23 ccbd 00aa 8bbd b2e9 1bbe 5e0d e2bc
00000050: 93fe 44bd 1478 16be 8838 20be 510e a73d
00000060: c790 27be c2b8 7dbd fbfa 1d3e 938d 0cbe
00000070: 52ee 913d 1dce 313d eb96 91bd 0462 e43d
00000080: 0878 0b3e 4842 d0bd 4109 27bc 6f50 fdbd
00000090: f479 cb3b 8952 0fbe 9925 adbb b3bc c4bd
000000a0: cc58 1abd ab60 183e 94cc e33c 1e23 123e
000000b0: 303c 973d 7924 1a3e f543 cebd 72a4 30be
000000c0: 7b3f a33c 9b7f 393d 1648 b53d 8c1d a3bc
000000d0: 7e79 d73d c024 35bd c500 16bd fb12 2d3e
000000e0: c436 9ebd 6520 38bd 1198 2a3e 5533 0bbe
000000f0: 1642 953d b835 fa3d 1c71 84ba a11c 133e
00000100: 1c11 0abd 8042 903d 2081 e73c ad86 22be
00000110: 024c bb3d fada d93d 48c1 52bd 8e90 60bd
00000120: 6637 e5bd 54f7 52bd 847a fbbd dff4 343e
00000130: 6215 ff3d 5181 0bbe 04bf 1bbe 283f da3c
00000140: 0c0a 09be d3e2 d9bd e638 1abe 1b23 1dbe
00000150: 9d86 2fbe 47e9 19be 5a3f 1dbe 0b2d adbd
00000160: b233 ab3d 0c3e 9abd 272e 88bd 39b4 283e
00000170: 277a 08be 0b88 97bd 8a2d bebd f632 a83d
00000180: eae3 fd3d 4bb5 bcbd c0e4 1fbc c4fe 0cbe
00000190: b39a 123e 6035 88bb 00e6 8fbb 9042 553c
000001a0: edeb 34be 5807 e8bc 2b55 0b3e b11d 04be
000001b0: b370 0c3e d76d f9bd 186b b43c 44cd 3f3d
000001c0: 406b cdbc a2b9 d83d 6c22 35bd d44e 50bd
000001d0: 8748 003e 4525 113e 40dd 99bb afc7 9bbd
000001e0: 98be 13be 8a3c fb3d e59d 2f3e 3051 2fbe
000001f0: d7f4 a1bd 6294 a93d 1c2f 233d 6c99 29be
00000200: a5b5 c2bd ffb7 4ebc 20fd f2bd 5246 e4bc
00000210: 998a 06bd 0fcf c23c 8953 b6bc 3e80 14bd
00000220: 0c6e 11be 10e2 1d3c 9cca 013e 9d15 08be
00000230: c623 223e 0171 2fbe 6203 673d dc93 73bd
00000240: 481c 433e aca3 9dbd 084a 1a3d 8b57 f2bd
00000250: 7bd1 bebc c2dd acbd 1980 46bc f69e bdbd
00000260: 9200 5ebd 4c00 f5bd 2b7f 34be bd03 df3d
00000270: bc0f 12bd 958f df3d 7a72 d13c 3673 173e
00000280: 0e7c 193b c120 1c3e effa d03c 22a7 0f3e
00000290: 2bb5 953c 9ae1 2a3e eaab 5d3d 5a48 acbd
000002a0: 8273 453e 69f9 d2bd d933 1abd 7ed1 023e
000002b0: fd20 febd e683 12bd 04d4 c7bd d097 5ebd
000002c0: 0f50 a6bd 0c00 a33d 580c ed3d a502 e13d
000002d0: 9090 363e 6bda bd3c 07e1 d3bd a177 19be
000002e0: 952d 0ebe c215 243e ff2e 213e 1efe 90bc
000002f0: 0a0b b83d 0f15 993d 1336 db3c 26b9 d0bd
00000300: 80c7 50bd 7892 96bd 383d 86bc 7ef0 adbd
00000310: 5c72 b6bd 3465 53bd d274 a03d a3d1 15be
00000320: 6a86 2ebe a052 1cbe 852a 123e 8454 57bd
00000330: 7ad0 f33d b080 4fbc 80dc b3ba 60cd 8abd
00000340: 8816 e6bc dfa5 08be 1014 0a3d de6a 9e3d
00000350: fed3 ea3d 42e5 fd3d 425f 8f3d 8891 c3bc
00000360: ec4c 633d 3834 05be c00c 73bb b396 e8bd
00000370: 57aa 003e a3d5 02be 3c74 5d3d 729a da3d
00000380: 84c7 a4bd 9bdc 053e 8151 003e a0d2 d2bc
00000390: 02ac b13d 7a6d d93d 00f1 feba 75cf d9bd
000003a0: 8048 28be 68db 1bbd 529d a23d 4edb a03d
000003b0: 3067 0d3d 6009 be3c cc50 fdbd 69a3 a4bd
000003c0: 3ec4 64bd ed0d 173e 909a 7e3c 78bf 8f3c
000003d0: c0f7 63bd 0a7f e13d 00e1 933a a2d2 ca3d
000003e0: 4fbd 34be 04cc 10bd a5a1 b2bd 74b3 9bbd
000003f0: a89f 5b3d c783 a8bd e047 8bbb d395 a7bd

fcl1.bias f4 [210]
0.07430264 0.16378988 -0.17146762 -0.121497035 0.17675962 0.075416535 -0.111638315 -0.031886235
-0.08025618 -0.15211111 -0.024681715 0.15134199 0.104559265 0.122483954 -0.063373365 -0.12066921
-0.0063956296 0.12374419 -0.060515642 -0.07696018 -0.07772811 -0.01845027 -0.13668218 -0.12203413
-0.062401615 -0.1559743 0.12768476 0.15656066 -0.11988692 -0.026098408 0.17072834 0.03451068
0.111680225 -0.15801342 0.053078648 -0.084172815 -0.11116583 0.13183518 -0.17854321 0.064075984
-0.023587 0.039913833 -0.15016665 0.14283775 -0.09846814 -0.12397845 -0.1713204 0.05997307
-0.077863485 0.13904737 0.12516718 -0.029426377 0.17842503 -0.039593417 0.08949043 0.14594914
0.06931899 -0.02374159 -0.10389587 -0.11769679 0.15013574 -0.06323368 -0.0041028936 0.12927763
-0.13260722 0.025226653 0.016185487 0.008886788 -0.068943754 0.15021914 0.1535747 -0.041764155
-0.07257999 -0.12142439 0.099252716 0.088915244 0.13789855 -0.045528036 0.14549853 -0.17253157
0.074533924 -0.15666683 -0.10440343 0.119504765 -0.03422093 -0.05177395 0.02125384 0.13784522
-0.10501473 -0.00033980608 0.13343151 0.1155127 0.1843581 0.1461201 0.1677946 0.027118668
-0.12892741 0.021784933 0.021063317 -0.06951704 0.17272252 0.060989883 0.07182597 0.022389948
0.05075011 0.10305553 0.18028377 0.07056649 0.10125424 0.12976006 -0.17149949 -0.19112496
-0.16427775 -0.03352423 -0.09744417 0.1713021 0.054338224 -0.13976443 0.10543939 -0.06637856
0.12993436 0.09671518 -0.026076877 0.13630965 0.08161886 0.14986274 -0.018097915 -0.023290068
-0.015330228 -0.15138125 0.06179514 -0.05188002 0.12428015 -0.08306347 -0.11739383 -0.13039945
-0.08320197 -0.16403191 -0.07636661 -0.13808008 0.017368983 0.074975036 0.19588827 -0.12694342
-0.05338469 -0.036845535 -0.16128074 -0.12954995 0.041477866 0.049656 0.008765297 0.014919654
0.04159709 0.12190709 -0.114747025 -0.0037403256 0.17722294 0.18279299 0.118436836 -0.068483025
0.0077972473 -0.15067776 -0.06841081 -0.029024098 -0.070056275 0.033673644 0.16730435 0.14166799
0.09626851 -0.079726554 0.07754362 0.052483574 -0.16122831 -0.1717938 -0.13427296 0.12434805
0.0083576655 0.101705976 0.07372949 -0.056867596 0.08447658 0.1633482 0.19802068 -0.021116436
-0.15220192 0.16066574 -0.06361476 -0.10019665 0.02426275 -0.14940062 -0.13731125 0.009897813
0.19302844 0.111797236 -0.059155315 0.1657598 -0.124163345 0.09622831 0.117756605 -0.16451453
0.1737509 -0.05199016 -0.14045508 -0.06906123 -0.04842639 -0.15537709 0.11111943 0.038182914
0.031635657 0.1610257
00000000: fc2b 983d 89b8 273e 3595 2fbe 70d3 f8bd
00000010: 7900 353e fc73 9a3d a1a2 e4bd 249b 02bd
00000020: 5a5d a4bd 04c3 1bbe 4f31 cabc 65f9 1a3e
00000030: 2b23 d63d ded8 fa3d e5c9 81bd 6b21 f7bd
00000040: 6e92 d1bb 986d fd3d 40df 77bd 4d9d 9dbd
00000050: ea2f 9fbd 0525 97bc 6af6 0bbe 08ed f9bd
00000060: d698 7fbd bab7 1fbe cbbf 023e 7051 203e
00000070: 4687 f5bd 54cc d5bc 69d3 2e3e 125b 0d3d
00000080: 9ab8 e43d 45ce 21be ff68 593d cc62 acbd
00000090: e9aa e3bd cdff 063e 08d4 36be 453a 833d
000000a0: 8639 c1bc b07c 233d 49c5 19be 0f44 123e
000000b0: aaa9 c9bd 6ae8 fdbd 9d6e 2fbe 52a6 753d
000000c0: e476 9fbd 6f62 0e3e d32b 003e 960f f1bc
000000d0: 0db5 363e b52c 22bd c246 b73d b173 153e
000000e0: 1df7 8d3d b97d c2bc 5cc7 d4bd 040b f1bd
000000f0: 2fbd 193e a980 81bd 9171 86bb 5b61 043e
00000100: 30ca 07be 20a8 ce3c 6d97 843c e499 113c
00000110: 6232 8dbd 0cd3 193e b042 1d3e e410 2bbd
00000120: d1a4 94bd 5aad f8bd 0245 cb3d 3219 b63d
00000130: 4735 0d3e 9b7b 3abd 91fd 143e 1eac 30be
00000140: 3ea5 983d 456d 20be 77d1 d5bd eabe f43d
00000150: 3f2b 0cbd ec10 54bd 881c ae3c 4c27 0d3e
00000160: f611 d7bd 0028 b2b9 45a2 083e ec91 ec3d
00000170: 5fc8 3c3e 82a0 153e 59d2 2b3e f827 de3c
00000180: 8c05 04be 5176 b23c fa8c ac3c f35e 8ebd
00000190: 2cde 303e 87d0 793d 7f19 933d 206b b73c
000001a0: 59df 4f3d c70e d33d 4f9c 383e 2a85 903d
000001b0: 625e cf3d d2df 043e 909d 2fbe 43b6 43be
000001c0: 6d38 28be b450 09bd cf90 c7bd d169 2f3e
000001d0: c291 5e3d 681e 0fbe 9bf0 d73d 7cf1 87bd
000001e0: 830d 053e 9c12 c63d 2d9f d5bc c294 0b3e
000001f0: ca27 a73d 9e75 193e 1442 94bc d0ca bebc
00000200: a32b 7bbc b003 1bbe e71c 7d3d 2580 54bd
00000210: 9786 fe3d 2e1d aabd 2d6c f0bd 6f87 05be
00000220: cb65 aabd fbf7 27be 1966 9cbd dd64 0dbe
00000230: 6649 8e3c 838c 993d ef96 483e 75fd 01be
00000240: e8a9 5abd 58eb 16bd c726 25be bea8 04be
00000250: b2e4 293d 1764 4b3d 529c 0f3c 9071 743c
00000260: b661 2a3d 6daa f93d 7d00 ebbd 4020 75bb
00000270: ee79 353e 162e 3b3e 038f f23d d440 8cbd
00000280: 0d80 ff3b 454b 1abe f71a 8cbd f2c3 edbc
00000290: aa79 8fbd 60ed 093d d551 2b3e 6a11 113e
000002a0: 6d28 c53d ad47 a3bd 30cf 9e3d 04f9 563d
000002b0: 0919 25be b7ea 2fbe da7e 09be 31aa fe3d
000002c0: 97ee 083c 394b d03d 7dff 963d ffed 68bd
000002d0: 0f02 ad3d c044 273e efc5 4a3e 60fc acbc
000002e0: d2da 1bbe 8f85 243e 7548 82bd e733 cdbd
000002f0: adc2 c63c 7afc 18be 529b 0cbe 702a 223c
00000300: 3fa9 453e f3f5 e43d d84c 72bd f0bc 293e
00000310: 5a49 febd 5913 c53d 602a f13d 7f76 28be
00000320: c2eb 313e a2f3 54bd 75d3 0fbe f96f 8dbd
00000330: c05a 46bd 2c1b 1fbe 9592 e33d b065 1c3d
00000340: 6494 013d ece3 243e

fcl2.weight f4 [20, 210]
-0.0044053057 0.06356493 0.022019573 -0.067548916 0.06298409 0.068198726 0.057708763 -0.036440108
-0.05724254 -0.010973226 0.070444055 0.019097574 0.051012207 0.048825886 0.0086810095 -0.049960047
-0.010545487 0.04935343 0.0068580583 0.04622381 -0.004605247 -0.05014345 -0.029459927 0.036525473
-0.06792112 0.04300881 0.06553821 0.063799456 0.06897595 -0.0487414 -0.025821311 0.06867989
-0.012245004 -0.026955111 -0.013868036 0.009039067 0.059469186 -0.01645527 -0.023482159 -0.011608839
-0.027252547 -0.025765106 0.04666038 0.0020286157 0.06173623 -0.032864824 -0.011499674 0.0058940616
0.07326818 0.0036445758 0.050744284 -0.01554655 0.076322906 0.040602013 0.07662553 0.07041295
0.08063978 0.032653753 0.0344296 0.010348297 0.003646947 0.011307512 0.06510604 -0.0057759895
0.058700003 0.074109815 0.065345 -0.011566036 0.03163752 0.07492392 -0.018095309 0.03596636
0.049838983 0.0018435866 0.037516333 -0.014271577 0.079336084 0.035824023 -0.038067978 0.0066052377
0.019026307 -0.046401754 -0.067160286 0.03731298 0.06475143 0.014410326 -0.06289714 0.00092770706
-0.021269944 -0.024804741 0.061253052 0.031287335 -0.04664076 -0.037481457 -0.032438517 0.048647188
0.029558323 0.03834335 0.07732818 -0.051056504 -0.046775386 -0.00012551105 0.0705344 -0.0377553
-0.017405717 0.02445304 0.05745723 0.011478975 0.062301476 0.055205733 -0.04457428 0.06913357
0.026441425 0.049672805 0.020820444 0.08719263 0.01682473 0.037952416 0.0754002 -0.06170667
0.06039059 0.044873264 0.07102831 0.008235186 0.0741764 0.02084589 0.02485126 -0.03744883
0.0770342 0.06380207 0.063197725 -0.0072984174 -0.040859424 -0.03151731 -0.0064466884 -0.040381722
-0.06373148 0.0168316 -0.017483298 0.03469617 -0.038285855 0.05497578 0.021557447 -0.016574616
0.052206077 -0.029403117 0.030524211 0.07808399 0.029255124 -0.05329377 -0.01443745 0.050887823
0.025205364 0.014757462 -0.063143566 0.03232353 -0.021601107 0.028728468 -0.009433324 0.008675882
-0.034300964 0.056970734 0.07126603 -0.03203848 -0.0037422916 0.02011865 0.07972455 0.022405202
0.030360088 -0.010321911 0.053974297 0.017196316 0.029390462 -0.01831904 -0.0044382815 0.07202045
0.06269746 0.07189419 0.00967219 0.04192682 0.078469366 0.044563036 0.01619086 -0.037132863
-0.0032720144 -0.0113817165 0.022361062 0.016589232 0.07266213 0.026983263 0.0047926903 0.054164708
0.058569197 0.048264652 -0.028974283 0.07278737 -0.005396433 0.007389988 0.04151218 -0.035672028
0.030502811 0.064060524 0.05015266 -0.052407764 0.006868057 0.00041932968 0.009248401 0.047946557
0.04075246 0.024439132 -0.022000061 0.047520507 0.022151291 0.0154393315 -0.060103483 0.03279176
-0.06524084 -0.013056669 -0.08528095 0.040753588 -0.07833162 -0.010053414 -0.008692951 0.021223702
0.0278002 0.051484115 -0.032509953 0.0141315 -0.017837577 0.060714476 -0.047746476 -0.050752725
0.049982734 0.002297528 -0.0672992 0.06710369 0.016205646 0.013095119 0.037638903 0.035970356
-0.09500815 0.02212523 -0.01875161 -0.0767816 0.0014461481 0.009991191 0.05273565 -0.0062579135
0.035170604 -0.04492133 0.008508677 -0.013095768 -0.05997695 -0.04456487 -0.02496879 -0.048774093
00000000: 625a 90bb 542e 823d 6462 b43c 1657 8abd
00000010: cdfd 803d c6ab 8b3d 0660 6c3d 3942 15bd
00000020: 2777 6abd 0cc9 33bc f944 903d 8472 9c3c
00000030: 2df2 503d a7fd 473d cb3a 0e3c e8a2 4cbd
00000040: fac6 2cbc d226 4a3d 90b9 e03b 2e55 3d3d
00000050: 9de7 96bb 3863 4dbd f255 f1bc bc9b 153d
00000060: 3a1a 8bbd 022a 303d e638 863d 4aa9 823d
00000070: 4343 8d3d 10a5 47bd 3787 d3bc 0ba8 8c3d
00000080: 459f 48bc f7d0 dcbc c236 63bc 9818 143c
00000090: f695 733d 34cd 86bc a85d c0bc 0033 3ebc
000000a0: bc40 dfbc 5811 d3bc f41e 3f3d 86f2 043b
000000b0: 21df 7c3d 449d 06bd 2169 3cbc f922 c13b
000000c0: a10d 963d d6d9 6e3b 3dd9 4f3d f5b6 7ebc
000000d0: 2f4f 9c3d 4c4e 263d d9ed 9c3d aa34 903d
000000e0: 7826 a53d f1bf 053d 0d06 0d3d e78b 293c
000000f0: 9e01 6f3b 2543 393c 5156 853d 8344 bdbb
00000100: 6a6f 703d e3c6 973d 99d3 853d 797f 3dbc
00000110: 5896 013d b671 993d 9d3c 94bc 7651 133d
00000120: f623 4c3d 80a4 f13a baaa 193d 55d3 69bc
00000130: f57a a23d 36bc 123d 2bed 1bbd c070 d83b
00000140: 0fdd 9b3c c40f 3ebd 558b 89bd 7fd5 183d
00000150: 669c 843d 4a19 6c3c 37d0 80bd 5e31 733a
00000160: 4e3e aebc 5033 cbbc 7be4 7a3d 2627 003d
00000170: 620a 3fbd 2886 19bd 40de 04bd 4642 473d
00000180: 4c24 f23c eb0d 1d3d 3d5e 9e3d a020 51bd
00000190: 8c97 3fbd 9e9b 03b9 5774 903d 4da5 1abd
000001a0: 6f96 8ebc be51 c83c 4658 6b3d 5012 3c3c
000001b0: d52f 7f3d 681f 623d 8593 36bd e795 8d3d
000001c0: b09b d83c b675 4b3d a38f aa3c 0d92 b23d
000001d0: 04d4 893c fe73 1b3d 6c6b 9a3d 22c0 7cbd
000001e0: 205c 773d 07cd 373d 4a77 913d e0ec 063c
000001f0: cce9 973d 00c5 aa3c df94 cb3c f263 19bd
00000200: 1bc4 9d3d a9aa 823d cf6d 813d 9027 efbb
00000210: 365c 27bd 4b18 01bd be3e d3bb 4e67 25bd
00000220: a685 82bd 6ce2 893c 2239 8fbc 921d 0e3d
00000230: a1d1 1cbd 492e 613d 3e99 b03c 7dc7 87bc
00000240: 0ad6 553d cede f0bc e90d fa3c 80ea 9f3d
00000250: 71a8 ef3c 914a 5abd 0e8b 6cbc c06f 503d
00000260: 7b7b ce3c 48c9 713c 6a51 81bd ae65 043d
00000270: cef4 b0bc f757 eb3c 3b8e 1abc 4925 0e3c
00000280: 2b7f 0cbd 255a 693d edf3 913d c83a 03bd
00000290: 3c41 75bb decf a43c a046 a33d 1d8b b73c
000002a0: b8b5 f83c 3c1d 29bc 2714 5d3d 4adf 8c3c
000002b0: 44c4 f03c d011 96bc 016f 91bb 757f 933d
000002c0: 8767 803d 433d 933d 1b78 1e3c 75bb 2b3d
000002d0: 8cb4 a03d bb87 363d b2a2 843c a118 18bd
000002e0: 4b6f 56bb 617a 3abc 8c2e b73c 24e6 873c
000002f0: e2cf 943d 010c dd3c 000c 9d3b d0db 5d3d
00000300: 41e6 6f3d 28b1 453d 7a5b edbc 8b11 953d
00000310: 90d4 b0bb b627 f23b ad08 2a3d d51c 12bd
00000320: 08e1 f93c 2a32 833d e06c 4d3d 86a9 56bd
00000330: 700d e13b 7ad9 db39 9b86 173c 9c63 443d
00000340: 0dec 263d 9334 c83c 7939 b4bc dda4 423d
00000350: a076 b53c 40f5 7c3c 122f 76bd a750 063d
00000360: fd9c 85bd a4eb 55bc c7a7 aebd 3ced 263d
00000370: 546c a0bd 13b7 24bc e16c 0ebc 54dd ad3c
00000380: 3fbd e33c 02e1 523d 2829 05bd cf87 673c
00000390: 1c20 92bc beaf 783d cf91 43bd 17e2 4fbd
000003a0: b2ba 4c3d 2092 163b 2ad4 89bd a96d 893d
000003b0: b4c1 843c e98c 563c 402b 1a3d a755 133d
000003c0: a293 c2bd f83f b53c fa9c 99bc ac3f 9dbd
000003d0: ae8c bd3a 18b2 233c 5601 583d 2f0f cdbb
000003e0: 0d0f 103d 6eff 37bd fa67 0b3c a28f 56bc
000003f0: 64aa 75bd a789 36bd 598b ccbc 58c7 47bd

fcl2.bias f4 [20]
0.030936932 -0.03566414 0.010232337 0.03573278 0.089186646 0.036524992 -0.025541037 0.012431719
-0.085906856 0.0921735 -0.0079063475 -0.074418835 0.09506142 -0.026834698 0.09267662 -0.092659526
0.059034795 -0.007465255 -0.051690962 -0.0047161486
00000000: 736f fd3c 9014 12bd 88a5 273c 895c 123d
00000010: 7da7 b63d 3b9b 153d 703b d1bc 69ae 4b3c
00000020: efef afbd 76c5 bc3d a089 01bc e768 98bd
00000030: 90af c23d 71d4 dbbc 3dcd bd3d 47c4 bdbd
00000040: 78ce 713d 199f f4bb e7b9 53bd ec89 9abb

fcl3.weight f4 [116, 20]
0.05971848 0.028395358 -0.12083508 0.15463859 0.20489913 -0.04719951 -0.044792324 -0.06861519
-0.019615386 0.17688993 0.07926959 -0.046245962 -0.09760254 0.05651163 0.19758429 0.029684449
-0.13040745 0.12475271 0.19911475 -0.10608076 -0.043078877 -0.10684341 0.1661943 0.07241782
0.1392215 0.1703888 -0.24270561 -0.14505336 -0.14296989 -0.11218501 -0.033357035 0.06720276
0.07572161 -0.07744294 -0.07867822 0.011079943 0.16687918 -0.15350555 0.14408034 0.081742965
0.20368221 0.027909428 0.14223826 0.105779596 0.22216049 -0.13469523 -0.013248343 -0.14402814
-0.16609555 0.21822535 0.16158834 -0.1893822 0.20454837 -0.18499424 0.19414859 0.10646968
0.11981472 -0.05987511 0.21466728 0.17577094 0.17009945 0.027294694 0.12436043 -0.14610969
0.12284755 0.2187504 0.03212215 -0.10096687 -0.0070461496 0.096727975 -0.016578926 0.18430507
0.14018363 -0.12491626 0.1900049 -0.21556209 0.16686685 0.00037773006 -0.1189028 -0.13246958
0.18502598 -0.22140573 -0.10137679 0.1675077 0.16134714 -0.13880022 -0.07460476 -0.084226385
0.046532217 0.20751049 -0.09551434 -0.17827193 -0.15325223 -0.13771276 0.015622341 -0.031516213
-0.21991256 -0.17511289 -0.18203846 -0.063690476 0.12212578 -0.041415304 -0.20045607 -0.18466759
0.07050058 0.1156064 0.059676584 -0.06275929 -0.13403445 0.012074268 -0.10953364 -0.24006763
-0.026681133 -0.03486236 -0.08286305 -0.21591878 0.07971939 0.15740211 0.057475112 -0.11241716
0.0077155135 0.13347624 -0.14701164 -0.2526909 -0.13403182 0.13516238 0.06642918 0.18228061
0.08030507 0.15208523 0.14659978 -0.21318689 0.05996165 0.12014584 0.26073265 -0.10652534
-0.17828839 -0.17932983 -0.105340704 0.15934826 -0.029229296 -0.21237205 0.0635211 -0.2489012
-0.16789809 0.14930925 -0.024370847 0.078706704 -0.08072024 0.035103653 -0.09249529 0.15426764
0.13509658 0.16370605 0.09275393 -0.08756243 0.06130075 -0.035619784 -0.24921842 -0.038547404
0.23795511 0.15882806 0.14830339 -0.022831416 -0.15536526 0.06580731 -0.074882254 -0.1491833
-0.16803715 -0.06938117 -0.013943876 -0.10830568 -0.10776886 0.12752588 -0.1283103 -0.23490846
0.20393221 -0.2044137 -4.732638e-05 -0.15224753 -0.016006632 -0.20215063 -0.09998935 -0.23052752
0.051798403 0.022008803 -0.19682255 -0.053051095 -0.041681223 0.16856311 0.23627001 0.13988598
0.23132785 0.1606628 0.10634763 0.16691896 0.10367689 0.1872602 -0.006209756 0.033650782
0.24631901 0.07221869 -0.113702744 0.15365914 -0.15446484 -0.110080354 0.068881735 -0.07033886
0.002125543 0.10051039 -0.18834643 -0.18955585 -0.16649093 0.045975935 0.20949154 -0.14765608
0.009399106 -0.1133044 -0.036922812 -0.23126425 0.21880434 0.07556936 0.1154935 -0.17740524
0.013237484 -0.024704933 -0.041853227 -0.08550306 0.15514588 0.25820124 0.15594833 -0.1905543
-0.07631887 -0.13905264 0.20133579 -0.22226653 -0.10839364 -0.18360384 -0.24969259 -0.2436725
0.10311075 -0.18604721 0.16619846 0.14554395 -0.091612555 -0.12610874 -0.17305402 -0.08278738
-0.09901304 0.20026053 -0.15789872 -0.052594326 -0.035451464 0.15857674 0.0388222 -0.26654744
00000000: 5d9b 743d 629d e83c 6278 f7bd 9459 1e3e
00000010: 14d1 513e 4654 41bd 2878 37bd 1f86 8cbd
00000020: 72b0 a0bc a222 353e 1858 a23d 686c 3dbd
00000030: d7e3 c7bd bd78 673d 8953 4a3e cd2c f33c
00000040: 8889 05be 597e ff3d bde4 4b3e df40 d9bd
00000050: 7a73 30bd b8d0 dabd d72e 2a3e cb4f 943d
00000060: 1590 0e3e 677a 2e3e d287 78be de88 14be
00000070: b366 12be 41c1 e5bd 63a1 08bd 9aa1 893d
00000080: ee13 9b3d 679a 9ebd 0c22 a1bd a688 353c
00000090: 60e2 2a3e 8f30 1dbe cc89 133e db68 a73d
000000a0: 1292 503e 50a2 e43c e8a6 113e f9a2 d83d
000000b0: 0a7e 633e 8ced 09be 940f 59bc 1d7c 13be
000000c0: f414 2abe 7776 5f3e 6a77 253e 68ed 41be
000000d0: 2175 513e 216f 3dbe e3ce 463e c70c da3d
000000e0: 6b61 f53d 9a3f 75bd bdd1 5b3e 4cfd 333e
000000f0: 8d2e 2e3e 1f99 df3c aeb0 fe3d c79d 15be
00000100: 7f97 fb3d 1b00 603e 8492 033d b8c7 cebd
00000110: 63e3 e6bb 5119 c63d 87d0 87bc 78ba 3c3e
00000120: 4c8c 0f3e 19d4 ffbd a590 423e 4fbc 5cbe
00000130: 25df 2a3e 120a c639 5083 f3bd 1ba6 07be
00000140: 7377 3d3e 2fb8 62be a29e cfbd 2387 2b3e
00000150: 2f38 253e a521 0ebe 61ca 98bd e27e acbd
00000160: 9198 3e3d a17d 543e 069d c3bd eb8c 36be
00000170: 27ee 1cbe 9304 0dbe d9f4 7f3c 2517 01bd
00000180: c230 61be cb50 33be 4a68 3abe 2770 82bd
00000190: 151d fa3d 18a3 29bd 5b44 4dbe 8019 3dbe
000001a0: 9c62 903d 0cc3 ec3d 6f6f 743d f187 80bd
000001b0: 5440 09be 27d3 453c 2c53 e0bd 4ad4 75be
000001c0: 6492 dabc d6cb 0ebd 1ab4 a9bd d019 5dbe
000001d0: eb43 a33d 052e 213e 066b 6b3d f83a e6bd
000001e0: 6bd2 fc3b ffad 083e 388a 16be b460 81be
000001f0: a33f 09be 0268 0a3e 060c 883d c5a7 3a3e
00000200: fc76 a43d 3bbc 1b3e 411e 163e aa4d 5abe
00000210: 599a 753d 060f f63d c07e 853e f529 dabd
00000220: 3b91 36be 3da2 37be debc d7bd 312c 233e
00000230: 4772 efbc 0f78 59be 5a17 823d f5df 7ebe
00000240: 7aed 2bbe 86e4 183e 5fa5 c7bc fb30 a13d
00000250: a750 a5bd d9c8 0f3d 2c6e bdbd 56f8 1d3e
00000260: c256 0a3e 8fa2 273e c6f5 bd3d ee53 b3bd
00000270: 7f16 7b3d 0de6 11bd 1d33 7fbe e2e3 1dbd
00000280: 81aa 733e d3a3 223e d8dc 173e f308 bbbc
00000290: 1218 1fbe fcc5 863d de5b 99bd 82c3 18be
000002a0: ee11 2cbe b717 8ebd db74 64bc 5ecf ddbd
000002b0: ecb5 dcbd 2596 023e c663 03be d88b 70be
000002c0: 9bd3 503e d351 51be 5080 46b8 c7e6 1bbe
000002d0: 5720 83bc 9300 4fbe 37c7 ccbd 680f 6cbe
000002e0: 902a 543d ce4b b43c da8b 49be 1b4c 59bd
000002f0: eeb9 2abd cf9b 2c3e c4f0 713e 453e 0f3e
00000300: 35e1 6c3e ca84 243e c9cc d93d ceec 2a3e
00000310: 8d54 d43d 23c1 3f3e 357b cbbb 67d5 093d
00000320: 0d3b 7c3e 64e7 933d fcdc e8bd d258 1d3e
00000330: 082c 1ebe cf71 e1bd de11 8d3d d20d 90bd
00000340: b24c 0b3b 64d8 cd3d e3dd 40be ee1a 42be
00000350: 997c 2abe 4351 3c3d f384 563e 2833 17be
00000360: b5fe 193c 230c e8bd 603c 17bd 89d0 6cbe
00000370: 3f0e 603e 1cc4 9a3d db87 ec3d b8a9 35be
00000380: 08e2 583c 0062 cabc 4a6e 2bbd 3a1c afbd
00000390: 90de 1e3e f432 843e ebb0 1f3e ab20 43be
000003a0: 114d 9cbd d163 0ebe f82a 4e3e d699 63be
000003b0: 7cfd ddbd a502 3cbe 6aaf 7fbe 4985 79be
000003c0: bb2b d33d 2983 3ebe ee2f 2a3e 7909 153e
000003d0: 5d9f bbbd a622 01be 1335 31be 6e8c a9bd
000003e0: 59c7 cabd 1911 4d3e 34b0 21be 266d 57bd
000003f0: 8e35 11bd f161 223e 0704 1f3d e878 88be

fcl3.bias f4 [116]
0.25146663 -0.15066096 0.22895762 0.045259804 0.21003217 0.24854243 -0.014605082 0.12681858
0.009051816 -0.021335626 0.09076075 0.13680764 0.015470591 0.10679181 0.1981026 -0.05379124
-0.16506697 -0.056269284 -0.02468369 -0.1417153 -0.1310929 0.07932642 0.20335834 -0.08711505
0.02167695 -0.06179317 -0.12669933 -0.01505735 0.105756365 0.0858466 0.10631293 -0.18486932
-0.190593 0.16944873 -0.043454383 -0.14551699 -0.020956984 0.09779394 0.24399345 0.020086586
0.07225624 0.16229656 0.14945252 -0.05483405 0.09356774 0.22736318 -0.1412204 0.01990457
0.03984743 0.14922278 -0.03184165 0.14709897 0.026624491 0.26568648 -0.15496105 0.057591815
-0.05927348 -0.08029799 0.04211793 -0.15374269 0.03591029 0.063585676 0.15474029 0.21143539
-0.13870566 0.18285464 0.05095363 0.18602039 0.10205216 -0.0484478 0.022598373 0.18818103
0.15870214 -0.16553101 -0.0131116565 -0.15712747 0.049431637 -0.048986766 0.19609325 -0.14627446
0.0057972637 0.044466656 0.021114074 0.1838658 0.21621974 0.18988173 0.24057104 0.25192583
-0.0558149 -0.10436519 -0.110029824 0.0895567 -0.06590191 0.01778429 0.068361774 0.1508145
0.165898 -0.08055365 -0.1574537 -0.06278876 0.1539185 0.042684205 0.11102096 -0.16910695
-0.0062424536 -0.101845704 -0.06541968 0.08258652 0.04017392 -0.045156788 -0.13506511 0.22579823
0.15173922 0.17565128 -0.13167481 0.22120042
00000000: 3cc0 803e de46 1abe de73 6a3e 5862 393d
00000010: ac12 573e e881 7e3e 274a 6fbc bbdc 013e
00000020: 114e 143c 0dc8 aebc c6e0 b93d 4d17 0c3e
00000030: 5d78 7d3c aab5 da3d 68db 4a3e 3454 5cbd
00000040: 5107 29be 9f7a 66bd 7335 cabc d11d 11be
00000050: 383d 06be e475 a23d 2b3d 503e 6069 b2bd
00000060: dc93 b13c d61a 7dbd 78bd 01be 1ab3 76bc
00000070: cb96 d83d 58d0 af3d 98ba d93d 624e 3dbe
00000080: d02a 43be f883 2d3e 39fd 31bd 6802 15be
00000090: fbad abbc 3048 c83d 6bd9 793e a08c a43c
000000a0: 14fb 933d 1231 263e 150a 193e ab99 60bd
000000b0: 71a0 bf3d e5d1 683e 159c 10be e90e a33c
000000c0: 0f37 233d dbcd 183e 646c 02bd 1da1 163e
000000d0: 9b1b da3c 0f08 883e 1cae 1ebe 65e5 6b3d
000000e0: c0c8 72bd 4673 a4bd da83 2c3d b96e 1dbe
000000f0: ab16 133d 3539 823d 3d74 1e3e 8582 583e
00000100: db08 0ebe 3f3e 3b3e c1b4 503d 217c 3e3e
00000110: b900 d13d 3371 46bd 3920 b93c 87b2 403e
00000120: d082 223e f680 29be 46d2 56bc 06e6 20be
00000130: d478 4a3d 59a6 48bd abcc 483e f9c8 15be
00000140: f9f6 bd3b ab22 363d 6cf7 ac3c 5147 3c3e
00000150: b568 5d3e 5b70 423e 4158 763e 6cfc 803e
00000160: 2a9e 64bd 6bbd d5bd 5157 e1bd 8169 b73d
00000170: 95f7 86bd 5cb0 913c 4201 8c3d 1e6f 1a3e
00000180: 2ae1 293e 50f9 a4bd 8b3b 21be 6597 80bd
00000190: d09c 1d3e a2d5 2e3d f55e e33d 5f2a 2dbe
000001a0: 7f8d ccbb 7b94 d0bd c1fa 85bd 1f23 a93d
000001b0: 698d 243d 53f6 38bd 824e 0abe a737 673e
000001c0: 8761 1b3e eedd 333e c3d5 06be 5d82 623e
